Namespace(batchSize=32, dataset='modelnet40', dataset_type='modelnet40', logname='NPCT', manualSeed=2580, model='', model_type='PCT', nepoch=250, num_points=1024, optimizer='sgd', outf='npct', workers=8)
PCT(
  (conv1): Conv1d(3, 128, kernel_size=(1,), stride=(1,), bias=False)
  (conv2): Conv1d(128, 128, kernel_size=(1,), stride=(1,), bias=False)
  (bn1): BatchNorm1d(128, eps=1e-05, momentum=0.1, affine=True, track_running_stats=True)
  (bn2): BatchNorm1d(128, eps=1e-05, momentum=0.1, affine=True, track_running_stats=True)
  (sa1): SA_Layer(
    (q_conv): Conv1d(128, 32, kernel_size=(1,), stride=(1,), bias=False)
    (k_conv): Conv1d(128, 32, kernel_size=(1,), stride=(1,), bias=False)
    (v_conv): Conv1d(128, 128, kernel_size=(1,), stride=(1,))
    (trans_conv): Conv1d(128, 128, kernel_size=(1,), stride=(1,))
    (after_norm): BatchNorm1d(128, eps=1e-05, momentum=0.1, affine=True, track_running_stats=True)
    (act): ReLU()
    (softmax): Softmax(dim=-1)
  )
  (sa2): SA_Layer(
    (q_conv): Conv1d(128, 32, kernel_size=(1,), stride=(1,), bias=False)
    (k_conv): Conv1d(128, 32, kernel_size=(1,), stride=(1,), bias=False)
    (v_conv): Conv1d(128, 128, kernel_size=(1,), stride=(1,))
    (trans_conv): Conv1d(128, 128, kernel_size=(1,), stride=(1,))
    (after_norm): BatchNorm1d(128, eps=1e-05, momentum=0.1, affine=True, track_running_stats=True)
    (act): ReLU()
    (softmax): Softmax(dim=-1)
  )
  (sa3): SA_Layer(
    (q_conv): Conv1d(128, 32, kernel_size=(1,), stride=(1,), bias=False)
    (k_conv): Conv1d(128, 32, kernel_size=(1,), stride=(1,), bias=False)
    (v_conv): Conv1d(128, 128, kernel_size=(1,), stride=(1,))
    (trans_conv): Conv1d(128, 128, kernel_size=(1,), stride=(1,))
    (after_norm): BatchNorm1d(128, eps=1e-05, momentum=0.1, affine=True, track_running_stats=True)
    (act): ReLU()
    (softmax): Softmax(dim=-1)
  )
  (sa4): SA_Layer(
    (q_conv): Conv1d(128, 32, kernel_size=(1,), stride=(1,), bias=False)
    (k_conv): Conv1d(128, 32, kernel_size=(1,), stride=(1,), bias=False)
    (v_conv): Conv1d(128, 128, kernel_size=(1,), stride=(1,))
    (trans_conv): Conv1d(128, 128, kernel_size=(1,), stride=(1,))
    (after_norm): BatchNorm1d(128, eps=1e-05, momentum=0.1, affine=True, track_running_stats=True)
    (act): ReLU()
    (softmax): Softmax(dim=-1)
  )
  (conv_fuse): Sequential(
    (0): Conv1d(512, 1024, kernel_size=(1,), stride=(1,), bias=False)
    (1): BatchNorm1d(1024, eps=1e-05, momentum=0.1, affine=True, track_running_stats=True)
    (2): LeakyReLU(negative_slope=0.2)
  )
  (linear1): Linear(in_features=1024, out_features=512, bias=False)
  (bn6): BatchNorm1d(512, eps=1e-05, momentum=0.1, affine=True, track_running_stats=True)
  (dp1): Dropout(p=0.5, inplace=False)
  (linear2): Linear(in_features=512, out_features=256, bias=True)
  (bn7): BatchNorm1d(256, eps=1e-05, momentum=0.1, affine=True, track_running_stats=True)
  (dp2): Dropout(p=0.5, inplace=False)
  (linear3): Linear(in_features=256, out_features=40, bias=True)
  (relu): ReLU()
)

[0: 0/307] train loss: 3.813605 accuracy: 0.031250
[0: 1/307] train loss: 3.737947 accuracy: 0.031250
[0: 2/307] train loss: 3.758351 accuracy: 0.000000
[0: 3/307] train loss: 3.662073 accuracy: 0.093750
[0: 4/307] train loss: 3.681068 accuracy: 0.062500
[0: 5/307] train loss: 3.648933 accuracy: 0.062500
[0: 6/307] train loss: 3.664416 accuracy: 0.031250
…
